…
y_data_dir: /home/paperspace/Data/training/v1/mapbox-st@2x/
('model configuration options:', [u'id', u'optimizer', u'learning_rate', u'max_epoch', u'batch_size', u'model_dir'])
model_dir: /home/paperspace/Models/
model: Unet_Mini
learning rate: 0.0001
max epoch: 32
batch size: 16
____________________________________________________________________________________________________
Layer (type)                     Output Shape          Param #     Connected to                     
====================================================================================================
input_1 (InputLayer)             (None, 512, 512, 3)   0                                            
____________________________________________________________________________________________________
conv2d_1 (Conv2D)                (None, 512, 512, 16)  448         input_1[0][0]                    
____________________________________________________________________________________________________
conv2d_2 (Conv2D)                (None, 512, 512, 16)  2320        conv2d_1[0][0]                   
____________________________________________________________________________________________________
max_pooling2d_1 (MaxPooling2D)   (None, 256, 256, 16)  0           conv2d_2[0][0]                   
____________________________________________________________________________________________________
conv2d_3 (Conv2D)                (None, 256, 256, 32)  4640        max_pooling2d_1[0][0]            
____________________________________________________________________________________________________
conv2d_4 (Conv2D)                (None, 256, 256, 32)  9248        conv2d_3[0][0]                   
____________________________________________________________________________________________________
max_pooling2d_2 (MaxPooling2D)   (None, 128, 128, 32)  0           conv2d_4[0][0]                   
____________________________________________________________________________________________________
conv2d_5 (Conv2D)                (None, 128, 128, 64)  18496       max_pooling2d_2[0][0]            
____________________________________________________________________________________________________
conv2d_6 (Conv2D)                (None, 128, 128, 64)  36928       conv2d_5[0][0]                   
____________________________________________________________________________________________________
max_pooling2d_3 (MaxPooling2D)   (None, 64, 64, 64)    0           conv2d_6[0][0]                   
____________________________________________________________________________________________________
conv2d_7 (Conv2D)                (None, 64, 64, 128)   73856       max_pooling2d_3[0][0]            
____________________________________________________________________________________________________
conv2d_8 (Conv2D)                (None, 64, 64, 128)   147584      conv2d_7[0][0]                   
____________________________________________________________________________________________________
max_pooling2d_4 (MaxPooling2D)   (None, 32, 32, 128)   0           conv2d_8[0][0]                   
____________________________________________________________________________________________________
conv2d_9 (Conv2D)                (None, 32, 32, 256)   295168      max_pooling2d_4[0][0]            
____________________________________________________________________________________________________
conv2d_10 (Conv2D)               (None, 32, 32, 256)   590080      conv2d_9[0][0]                   
____________________________________________________________________________________________________
up_sampling2d_1 (UpSampling2D)   (None, 64, 64, 256)   0           conv2d_10[0][0]                  
____________________________________________________________________________________________________
merge_1 (Merge)                  (None, 64, 64, 384)   0           up_sampling2d_1[0][0]            
                                                                   conv2d_8[0][0]                   
____________________________________________________________________________________________________
conv2d_11 (Conv2D)               (None, 64, 64, 128)   442496      merge_1[0][0]                    
____________________________________________________________________________________________________
conv2d_12 (Conv2D)               (None, 64, 64, 128)   147584      conv2d_11[0][0]                  
____________________________________________________________________________________________________
up_sampling2d_2 (UpSampling2D)   (None, 128, 128, 128) 0           conv2d_12[0][0]                  
____________________________________________________________________________________________________
merge_2 (Merge)                  (None, 128, 128, 192) 0           up_sampling2d_2[0][0]            
                                                                   conv2d_6[0][0]                   
____________________________________________________________________________________________________
conv2d_13 (Conv2D)               (None, 128, 128, 64)  110656      merge_2[0][0]                    
____________________________________________________________________________________________________
conv2d_14 (Conv2D)               (None, 128, 128, 64)  36928       conv2d_13[0][0]                  
____________________________________________________________________________________________________
up_sampling2d_3 (UpSampling2D)   (None, 256, 256, 64)  0           conv2d_14[0][0]                  
____________________________________________________________________________________________________
merge_3 (Merge)                  (None, 256, 256, 96)  0           up_sampling2d_3[0][0]            
                                                                   conv2d_4[0][0]                   
____________________________________________________________________________________________________
conv2d_15 (Conv2D)               (None, 256, 256, 32)  27680       merge_3[0][0]                    
____________________________________________________________________________________________________
conv2d_16 (Conv2D)               (None, 256, 256, 32)  9248        conv2d_15[0][0]                  
____________________________________________________________________________________________________
up_sampling2d_4 (UpSampling2D)   (None, 512, 512, 32)  0           conv2d_16[0][0]                  
____________________________________________________________________________________________________
merge_4 (Merge)                  (None, 512, 512, 48)  0           up_sampling2d_4[0][0]            
                                                                   conv2d_2[0][0]                   
____________________________________________________________________________________________________
conv2d_17 (Conv2D)               (None, 512, 512, 16)  6928        merge_4[0][0]                    
____________________________________________________________________________________________________
conv2d_18 (Conv2D)               (None, 512, 512, 16)  2320        conv2d_17[0][0]                  
____________________________________________________________________________________________________
conv2d_19 (Conv2D)               (None, 512, 512, 1)   17          conv2d_18[0][0]                  
====================================================================================================
Total params: 1,962,625
Trainable params: 1,962,625
Non-trainable params: 0
____________________________________________________________________________________________________
None
Epoch 1/32
Epoch 00000: val_loss improved from inf to -0.34458, saving model to /home/paperspace/Models/Unet_Mini-20170912-175038.hdf5
…
