…
('model configuration options:', [u'id', u'optimizer', u'learning_rate', u'min_learning_rate', u'lr_reduction_factor', u'max_epoch', u'batch_size', u'model_dir'])
model_dir: /home/paperspace/Models/
model: Dilated_Unet
learning rate: 0.0001
max epoch: 64
minimum learning rate: 1e-06
lr_reduction_factor: 0.2
batch size: 16
model checkpoint file path: /home/paperspace/Models/Dilated_Unet-20170927-140651.hdf5
____________________________________________________________________________________________________
Layer (type)                     Output Shape          Param #     Connected to                     
====================================================================================================
input_1 (InputLayer)             (None, 512, 512, 3)   0                                            
____________________________________________________________________________________________________
conv2d_1 (Conv2D)                (None, 512, 512, 32)  896         input_1[0][0]                    
____________________________________________________________________________________________________
activation_1 (Activation)        (None, 512, 512, 32)  0           conv2d_1[0][0]                   
____________________________________________________________________________________________________
conv2d_2 (Conv2D)                (None, 512, 512, 32)  9248        activation_1[0][0]               
____________________________________________________________________________________________________
activation_2 (Activation)        (None, 512, 512, 32)  0           conv2d_2[0][0]                   
____________________________________________________________________________________________________
max_pooling2d_1 (MaxPooling2D)   (None, 256, 256, 32)  0           activation_2[0][0]               
____________________________________________________________________________________________________
conv2d_3 (Conv2D)                (None, 256, 256, 64)  18496       max_pooling2d_1[0][0]            
____________________________________________________________________________________________________
activation_3 (Activation)        (None, 256, 256, 64)  0           conv2d_3[0][0]                   
____________________________________________________________________________________________________
conv2d_4 (Conv2D)                (None, 256, 256, 64)  36928       activation_3[0][0]               
____________________________________________________________________________________________________
activation_4 (Activation)        (None, 256, 256, 64)  0           conv2d_4[0][0]                   
____________________________________________________________________________________________________
max_pooling2d_2 (MaxPooling2D)   (None, 128, 128, 64)  0           activation_4[0][0]               
____________________________________________________________________________________________________
conv2d_5 (Conv2D)                (None, 128, 128, 128) 73856       max_pooling2d_2[0][0]            
____________________________________________________________________________________________________
activation_5 (Activation)        (None, 128, 128, 128) 0           conv2d_5[0][0]                   
____________________________________________________________________________________________________
conv2d_6 (Conv2D)                (None, 128, 128, 128) 147584      activation_5[0][0]               
____________________________________________________________________________________________________
activation_6 (Activation)        (None, 128, 128, 128) 0           conv2d_6[0][0]                   
____________________________________________________________________________________________________
max_pooling2d_3 (MaxPooling2D)   (None, 64, 64, 128)   0           activation_6[0][0]               
____________________________________________________________________________________________________
conv2d_7 (Conv2D)                (None, 64, 64, 256)   295168      max_pooling2d_3[0][0]            
____________________________________________________________________________________________________
activation_7 (Activation)        (None, 64, 64, 256)   0           conv2d_7[0][0]                   
____________________________________________________________________________________________________
conv2d_8 (Conv2D)                (None, 64, 64, 256)   590080      activation_7[0][0]               
____________________________________________________________________________________________________
activation_8 (Activation)        (None, 64, 64, 256)   0           conv2d_8[0][0]                   
____________________________________________________________________________________________________
max_pooling2d_4 (MaxPooling2D)   (None, 32, 32, 256)   0           activation_8[0][0]               
____________________________________________________________________________________________________
conv2d_9 (Conv2D)                (None, 32, 32, 512)   1180160     max_pooling2d_4[0][0]            
____________________________________________________________________________________________________
activation_9 (Activation)        (None, 32, 32, 512)   0           conv2d_9[0][0]                   
____________________________________________________________________________________________________
conv2d_10 (Conv2D)               (None, 32, 32, 512)   2359808     activation_9[0][0]               
____________________________________________________________________________________________________
activation_10 (Activation)       (None, 32, 32, 512)   0           conv2d_10[0][0]                  
____________________________________________________________________________________________________
conv2d_11 (Conv2D)               (None, 32, 32, 512)   2359808     activation_10[0][0]              
____________________________________________________________________________________________________
activation_11 (Activation)       (None, 32, 32, 512)   0           conv2d_11[0][0]                  
____________________________________________________________________________________________________
conv2d_12 (Conv2D)               (None, 32, 32, 512)   2359808     activation_11[0][0]              
____________________________________________________________________________________________________
activation_12 (Activation)       (None, 32, 32, 512)   0           conv2d_12[0][0]                  
____________________________________________________________________________________________________
conv2d_13 (Conv2D)               (None, 32, 32, 512)   2359808     activation_12[0][0]              
____________________________________________________________________________________________________
activation_13 (Activation)       (None, 32, 32, 512)   0           conv2d_13[0][0]                  
____________________________________________________________________________________________________
conv2d_transpose_1 (Conv2DTransp (None, 64, 64, 256)   524544      activation_13[0][0]              
____________________________________________________________________________________________________
concatenate_1 (Concatenate)      (None, 64, 64, 512)   0           conv2d_transpose_1[0][0]         
                                                                   activation_8[0][0]               
____________________________________________________________________________________________________
conv2d_14 (Conv2D)               (None, 64, 64, 256)   1179904     concatenate_1[0][0]              
____________________________________________________________________________________________________
activation_14 (Activation)       (None, 64, 64, 256)   0           conv2d_14[0][0]                  
____________________________________________________________________________________________________
conv2d_15 (Conv2D)               (None, 64, 64, 256)   590080      activation_14[0][0]              
____________________________________________________________________________________________________
activation_15 (Activation)       (None, 64, 64, 256)   0           conv2d_15[0][0]                  
____________________________________________________________________________________________________
conv2d_transpose_2 (Conv2DTransp (None, 128, 128, 128) 131200      activation_15[0][0]              
____________________________________________________________________________________________________
concatenate_2 (Concatenate)      (None, 128, 128, 256) 0           conv2d_transpose_2[0][0]         
                                                                   activation_6[0][0]               
____________________________________________________________________________________________________
conv2d_16 (Conv2D)               (None, 128, 128, 128) 295040      concatenate_2[0][0]              
____________________________________________________________________________________________________
activation_16 (Activation)       (None, 128, 128, 128) 0           conv2d_16[0][0]                  
____________________________________________________________________________________________________
conv2d_17 (Conv2D)               (None, 128, 128, 128) 147584      activation_16[0][0]              
____________________________________________________________________________________________________
activation_17 (Activation)       (None, 128, 128, 128) 0           conv2d_17[0][0]                  
____________________________________________________________________________________________________
conv2d_transpose_3 (Conv2DTransp (None, 256, 256, 64)  32832       activation_17[0][0]              
____________________________________________________________________________________________________
concatenate_3 (Concatenate)      (None, 256, 256, 128) 0           conv2d_transpose_3[0][0]         
                                                                   activation_4[0][0]               
____________________________________________________________________________________________________
conv2d_18 (Conv2D)               (None, 256, 256, 64)  73792       concatenate_3[0][0]              
____________________________________________________________________________________________________
activation_18 (Activation)       (None, 256, 256, 64)  0           conv2d_18[0][0]                  
____________________________________________________________________________________________________
conv2d_19 (Conv2D)               (None, 256, 256, 64)  36928       activation_18[0][0]              
____________________________________________________________________________________________________
activation_19 (Activation)       (None, 256, 256, 64)  0           conv2d_19[0][0]                  
____________________________________________________________________________________________________
conv2d_transpose_4 (Conv2DTransp (None, 512, 512, 32)  8224        activation_19[0][0]              
____________________________________________________________________________________________________
concatenate_4 (Concatenate)      (None, 512, 512, 64)  0           conv2d_transpose_4[0][0]         
                                                                   activation_2[0][0]               
____________________________________________________________________________________________________
conv2d_20 (Conv2D)               (None, 512, 512, 32)  18464       concatenate_4[0][0]              
____________________________________________________________________________________________________
activation_20 (Activation)       (None, 512, 512, 32)  0           conv2d_20[0][0]                  
____________________________________________________________________________________________________
conv2d_21 (Conv2D)               (None, 512, 512, 32)  9248        activation_20[0][0]              
____________________________________________________________________________________________________
activation_21 (Activation)       (None, 512, 512, 32)  0           conv2d_21[0][0]                  
____________________________________________________________________________________________________
conv2d_22 (Conv2D)               (None, 512, 512, 1)   33          activation_21[0][0]              
____________________________________________________________________________________________________
lambda_1 (Lambda)                (None, 512, 512, 1)   0           conv2d_22[0][0]                  
____________________________________________________________________________________________________
activation_22 (Activation)       (None, 512, 512, 1)   0           lambda_1[0][0]                   
====================================================================================================
Total params: 14,839,521
Trainable params: 14,839,521
Non-trainable params: 0
____________________________________________________________________________________________________
None
Epoch 1/64
  1/195 [..............................] - ETA: 4148s - lo
…
