…
('model configuration options:', [u'id', u'optimizer', u'learning_rate', u'max_epoch', u'batch_size', u'model_dir'])
model_dir: /home/paperspace/Models/
model: Unet_Level7
learning rate: 0.0001
max epoch: 64
batch size: 16
model checkpoint file path: /home/paperspace/Models/Unet_Level7-20170917-134531.hdf5
____________________________________________________________________________________________________
Layer (type)                     Output Shape          Param #     Connected to                     
====================================================================================================
input_1 (InputLayer)             (None, 512, 512, 3)   0                                            
____________________________________________________________________________________________________
conv2d_1 (Conv2D)                (None, 512, 512, 8)   224         input_1[0][0]                    
____________________________________________________________________________________________________
conv2d_2 (Conv2D)                (None, 512, 512, 8)   584         conv2d_1[0][0]                   
____________________________________________________________________________________________________
max_pooling2d_1 (MaxPooling2D)   (None, 256, 256, 8)   0           conv2d_2[0][0]                   
____________________________________________________________________________________________________
conv2d_3 (Conv2D)                (None, 256, 256, 16)  1168        max_pooling2d_1[0][0]            
____________________________________________________________________________________________________
conv2d_4 (Conv2D)                (None, 256, 256, 16)  2320        conv2d_3[0][0]                   
____________________________________________________________________________________________________
max_pooling2d_2 (MaxPooling2D)   (None, 128, 128, 16)  0           conv2d_4[0][0]                   
____________________________________________________________________________________________________
conv2d_5 (Conv2D)                (None, 128, 128, 32)  4640        max_pooling2d_2[0][0]            
____________________________________________________________________________________________________
conv2d_6 (Conv2D)                (None, 128, 128, 32)  9248        conv2d_5[0][0]                   
____________________________________________________________________________________________________
max_pooling2d_3 (MaxPooling2D)   (None, 64, 64, 32)    0           conv2d_6[0][0]                   
____________________________________________________________________________________________________
conv2d_7 (Conv2D)                (None, 64, 64, 64)    18496       max_pooling2d_3[0][0]            
____________________________________________________________________________________________________
conv2d_8 (Conv2D)                (None, 64, 64, 64)    36928       conv2d_7[0][0]                   
____________________________________________________________________________________________________
max_pooling2d_4 (MaxPooling2D)   (None, 32, 32, 64)    0           conv2d_8[0][0]                   
____________________________________________________________________________________________________
conv2d_9 (Conv2D)                (None, 32, 32, 128)   73856       max_pooling2d_4[0][0]            
____________________________________________________________________________________________________
conv2d_10 (Conv2D)               (None, 32, 32, 128)   147584      conv2d_9[0][0]                   
____________________________________________________________________________________________________
max_pooling2d_5 (MaxPooling2D)   (None, 16, 16, 128)   0           conv2d_10[0][0]                  
____________________________________________________________________________________________________
conv2d_11 (Conv2D)               (None, 16, 16, 256)   295168      max_pooling2d_5[0][0]            
____________________________________________________________________________________________________
conv2d_12 (Conv2D)               (None, 16, 16, 256)   590080      conv2d_11[0][0]                  
____________________________________________________________________________________________________
max_pooling2d_6 (MaxPooling2D)   (None, 8, 8, 256)     0           conv2d_12[0][0]                  
____________________________________________________________________________________________________
conv2d_13 (Conv2D)               (None, 8, 8, 512)     1180160     max_pooling2d_6[0][0]            
____________________________________________________________________________________________________
conv2d_14 (Conv2D)               (None, 8, 8, 512)     2359808     conv2d_13[0][0]                  
____________________________________________________________________________________________________
up_sampling2d_1 (UpSampling2D)   (None, 16, 16, 512)   0           conv2d_14[0][0]                  
____________________________________________________________________________________________________
concatenate_1 (Concatenate)      (None, 16, 16, 768)   0           up_sampling2d_1[0][0]            
                                                                   conv2d_12[0][0]                  
____________________________________________________________________________________________________
conv2d_15 (Conv2D)               (None, 16, 16, 256)   1769728     concatenate_1[0][0]              
____________________________________________________________________________________________________
conv2d_16 (Conv2D)               (None, 16, 16, 256)   590080      conv2d_15[0][0]                  
____________________________________________________________________________________________________
up_sampling2d_2 (UpSampling2D)   (None, 32, 32, 256)   0           conv2d_16[0][0]                  
____________________________________________________________________________________________________
concatenate_2 (Concatenate)      (None, 32, 32, 384)   0           up_sampling2d_2[0][0]            
                                                                   conv2d_10[0][0]                  
____________________________________________________________________________________________________
conv2d_17 (Conv2D)               (None, 32, 32, 128)   442496      concatenate_2[0][0]              
____________________________________________________________________________________________________
conv2d_18 (Conv2D)               (None, 32, 32, 128)   147584      conv2d_17[0][0]                  
____________________________________________________________________________________________________
up_sampling2d_3 (UpSampling2D)   (None, 64, 64, 128)   0           conv2d_18[0][0]                  
____________________________________________________________________________________________________
concatenate_3 (Concatenate)      (None, 64, 64, 192)   0           up_sampling2d_3[0][0]            
                                                                   conv2d_8[0][0]                   
____________________________________________________________________________________________________
conv2d_19 (Conv2D)               (None, 64, 64, 64)    110656      concatenate_3[0][0]              
____________________________________________________________________________________________________
conv2d_20 (Conv2D)               (None, 64, 64, 64)    36928       conv2d_19[0][0]                  
____________________________________________________________________________________________________
up_sampling2d_4 (UpSampling2D)   (None, 128, 128, 64)  0           conv2d_20[0][0]                  
____________________________________________________________________________________________________
concatenate_4 (Concatenate)      (None, 128, 128, 96)  0           up_sampling2d_4[0][0]            
                                                                   conv2d_6[0][0]                   
____________________________________________________________________________________________________
conv2d_21 (Conv2D)               (None, 128, 128, 32)  27680       concatenate_4[0][0]              
____________________________________________________________________________________________________
conv2d_22 (Conv2D)               (None, 128, 128, 32)  9248        conv2d_21[0][0]                  
____________________________________________________________________________________________________
up_sampling2d_5 (UpSampling2D)   (None, 256, 256, 32)  0           conv2d_22[0][0]                  
____________________________________________________________________________________________________
concatenate_5 (Concatenate)      (None, 256, 256, 48)  0           up_sampling2d_5[0][0]            
                                                                   conv2d_4[0][0]                   
____________________________________________________________________________________________________
conv2d_23 (Conv2D)               (None, 256, 256, 16)  6928        concatenate_5[0][0]              
____________________________________________________________________________________________________
conv2d_24 (Conv2D)               (None, 256, 256, 16)  2320        conv2d_23[0][0]                  
____________________________________________________________________________________________________
up_sampling2d_6 (UpSampling2D)   (None, 512, 512, 16)  0           conv2d_24[0][0]                  
____________________________________________________________________________________________________
concatenate_6 (Concatenate)      (None, 512, 512, 24)  0           up_sampling2d_6[0][0]            
                                                                   conv2d_2[0][0]                   
____________________________________________________________________________________________________
conv2d_25 (Conv2D)               (None, 512, 512, 8)   1736        concatenate_6[0][0]              
____________________________________________________________________________________________________
conv2d_26 (Conv2D)               (None, 512, 512, 8)   584         conv2d_25[0][0]                  
____________________________________________________________________________________________________
conv2d_27 (Conv2D)               (None, 512, 512, 1)   9           conv2d_26[0][0]                  
====================================================================================================
Total params: 7,866,241
Trainable params: 7,866,241
Non-trainable params: 0
____________________________________________________________________________________________________
None
Epoch 1/64
  1/195 [..............................] - ETA: 1983s - loss
…
