…
('model configuration options:', [u'id', u'optimizer', u'learning_rate', u'max_epoch', u'batch_size', u'model_dir'])
model_dir: /home/paperspace/Models/
model: Unet_Dilated
learning rate: 0.0001
max epoch: 64
batch size: 16
model checkpoint file path: /home/paperspace/Models/Unet_Dilated-20170920-200351.hdf5
____________________________________________________________________________________________________
Layer (type)                     Output Shape          Param #     Connected to                     
====================================================================================================
input_1 (InputLayer)             (None, 512, 512, 3)   0                                            
____________________________________________________________________________________________________
conv2d_1 (Conv2D)                (None, 512, 512, 32)  896         input_1[0][0]                    
____________________________________________________________________________________________________
conv2d_2 (Conv2D)                (None, 512, 512, 32)  9248        conv2d_1[0][0]                   
____________________________________________________________________________________________________
max_pooling2d_1 (MaxPooling2D)   (None, 256, 256, 32)  0           conv2d_2[0][0]                   
____________________________________________________________________________________________________
conv2d_3 (Conv2D)                (None, 256, 256, 64)  18496       max_pooling2d_1[0][0]            
____________________________________________________________________________________________________
conv2d_4 (Conv2D)                (None, 256, 256, 64)  36928       conv2d_3[0][0]                   
____________________________________________________________________________________________________
max_pooling2d_2 (MaxPooling2D)   (None, 128, 128, 64)  0           conv2d_4[0][0]                   
____________________________________________________________________________________________________
conv2d_5 (Conv2D)                (None, 128, 128, 128) 73856       max_pooling2d_2[0][0]            
____________________________________________________________________________________________________
conv2d_6 (Conv2D)                (None, 128, 128, 128) 147584      conv2d_5[0][0]                   
____________________________________________________________________________________________________
max_pooling2d_3 (MaxPooling2D)   (None, 64, 64, 128)   0           conv2d_6[0][0]                   
____________________________________________________________________________________________________
conv2d_7 (Conv2D)                (None, 64, 64, 256)   295168      max_pooling2d_3[0][0]            
____________________________________________________________________________________________________
conv2d_8 (Conv2D)                (None, 64, 64, 256)   590080      conv2d_7[0][0]                   
____________________________________________________________________________________________________
max_pooling2d_4 (MaxPooling2D)   (None, 32, 32, 256)   0           conv2d_8[0][0]                   
____________________________________________________________________________________________________
conv2d_9 (Conv2D)                (None, 32, 32, 512)   1180160     max_pooling2d_4[0][0]            
____________________________________________________________________________________________________
conv2d_10 (Conv2D)               (None, 32, 32, 512)   2359808     conv2d_9[0][0]                   
____________________________________________________________________________________________________
up_sampling2d_1 (UpSampling2D)   (None, 64, 64, 512)   0           conv2d_10[0][0]                  
____________________________________________________________________________________________________
concatenate_1 (Concatenate)      (None, 64, 64, 768)   0           up_sampling2d_1[0][0]            
                                                                   conv2d_8[0][0]                   
____________________________________________________________________________________________________
conv2d_11 (Conv2D)               (None, 64, 64, 256)   1769728     concatenate_1[0][0]              
____________________________________________________________________________________________________
conv2d_12 (Conv2D)               (None, 64, 64, 256)   590080      conv2d_11[0][0]                  
____________________________________________________________________________________________________
up_sampling2d_2 (UpSampling2D)   (None, 128, 128, 256) 0           conv2d_12[0][0]                  
____________________________________________________________________________________________________
concatenate_2 (Concatenate)      (None, 128, 128, 384) 0           up_sampling2d_2[0][0]            
                                                                   conv2d_6[0][0]                   
____________________________________________________________________________________________________
conv2d_13 (Conv2D)               (None, 128, 128, 128) 442496      concatenate_2[0][0]              
____________________________________________________________________________________________________
conv2d_14 (Conv2D)               (None, 128, 128, 128) 147584      conv2d_13[0][0]                  
____________________________________________________________________________________________________
up_sampling2d_3 (UpSampling2D)   (None, 256, 256, 128) 0           conv2d_14[0][0]                  
____________________________________________________________________________________________________
concatenate_3 (Concatenate)      (None, 256, 256, 192) 0           up_sampling2d_3[0][0]            
                                                                   conv2d_4[0][0]                   
____________________________________________________________________________________________________
conv2d_15 (Conv2D)               (None, 256, 256, 64)  110656      concatenate_3[0][0]              
____________________________________________________________________________________________________
conv2d_16 (Conv2D)               (None, 256, 256, 64)  36928       conv2d_15[0][0]                  
____________________________________________________________________________________________________
up_sampling2d_4 (UpSampling2D)   (None, 512, 512, 64)  0           conv2d_16[0][0]                  
____________________________________________________________________________________________________
concatenate_4 (Concatenate)      (None, 512, 512, 96)  0           up_sampling2d_4[0][0]            
                                                                   conv2d_2[0][0]                   
____________________________________________________________________________________________________
conv2d_17 (Conv2D)               (None, 512, 512, 32)  27680       concatenate_4[0][0]              
____________________________________________________________________________________________________
conv2d_18 (Conv2D)               (None, 512, 512, 32)  9248        conv2d_17[0][0]                  
____________________________________________________________________________________________________
conv2d_19 (Conv2D)               (None, 512, 512, 1)   33          conv2d_18[0][0]                  
====================================================================================================
Total params: 7,846,657
Trainable params: 7,846,657
Non-trainable params: 0
____________________________________________________________________________________________________
None
Epoch 1/64
  1/525 [..............................] - ETA: 6188s - loss:
…
